models/saved/lstm_model.pth (torch, 673954 bytes, 37 tensors)

lstm1.weight_ih_l0 f4 [256, 158]
0	0x3e4c01ab	0.19922511
1	0x3e496b29	0.19669785
2	0x3e308903	0.17239766
3	0x3e3303af	0.17481874
4	0x3e99ad8e	0.30015224
5	0x3e9dc781	0.30816272
6	0x3ddf66dd	0.109082915
7	0x3deac58b	0.114634596
8	0x3dd6ec54	0.10494295
9	0x3d8d9303	0.06912806
10	0xbea779e5	-0.32710186
11	0xbe961b9d	-0.29317942
12	0xbe07519f	-0.1321473
13	0xbda036a8	-0.07822925
14	0xbe1328c2	-0.14371017
15	0xbe8152b1	-0.252584
16	0xbdbc1c51	-0.091850884
17	0xbd3c31ff	-0.045946117
18	0xbe2fb33a	-0.17158213
19	0xbeb7c4fd	-0.35892478
20	0xbe0b61e5	-0.13611563
21	0xbcd04ce8	-0.025427297
22	0xbe019b27	-0.12656842
23	0xbe103cec	-0.1408574
24	0xbe9f50fc	-0.31116474
25	0x3d648a60	0.055796027
26	0x3e80bae3	0.25142583
27	0xbe4066ad	-0.18789168
28	0x3eeb7fb6	0.45995873
29	0x3ec7f96f	0.3905749
30	0xbcd8efea	-0.026481587
31	0xbe8a7e07	-0.27049276
32	0xbe3b4e6d	-0.18291636
33	0xbdf07f6e	-0.11743055
34	0x3e19388f	0.14962982
35	0xbd5a6ba6	-0.053325318
36	0x3e4846d6	0.19558272
37	0x3dc743ba	0.09729715
38	0x3cd05c05	0.025434503
39	0x3e2e718e	0.17035505
40	0xbe22ffea	-0.15917936
41	0x3d7e8cad	0.062145878
42	0x3e21e1ea	0.15808836
43	0x3e8ce9ab	0.27522025
44	0xbe1c710e	-0.15277502
45	0x3e9eca73	0.31013831
46	0x3ea9cd2f	0.33164355
47	0xbe183589	-0.14864172
48	0x3c4ab450	0.012372091
49	0x3d05bd68	0.032651335
50	0x3e82f1ee	0.25575203
51	0x3d3f3778	0.04668376
52	0x3e93a5cd	0.28837433
53	0xbe0f73e6	-0.14009055
54	0xbe2d3a09	-0.1691667
55	0xbdf9d251	-0.12198318
56	0x3d893bf6	0.0670089
57	0x3e4fa85e	0.2027907
58	0xbde37e84	-0.11108115
59	0xbe3339f3	-0.17502575
60	0xbe28f9a0	-0.16501474
61	0x3dbec184	0.09314254
62	0xbc276e5e	-0.010219185
63	0xbdfc1257	-0.123081855
64	0xbe2e96b6	-0.17049679
65	0xbcb940ea	-0.022613961
66	0xbe2e114f	-0.1699879
67	0xbd3231ee	-0.043504648
68	0x3d8ed0c0	0.0697341
69	0x3dfee412	0.12445845
70	0xbd1f831c	-0.038943395
71	0xbd81307b	-0.06308075
72	0xbe099bd3	-0.13438348
73	0xbe775f6a	-0.24157491
74	0x3eb85582	0.36002737
75	0x3e54f3c6	0.20796117
76	0x3e8815d2	0.26579148
77	0x3da02a59	0.07820577
78	0x3e15b4b9	0.14619721
79	0x3e4521fe	0.19251248
80	0x3eb0ea4b	0.3455375
81	0xbe2d90b0	-0.16949725
82	0x3d46aaa3	0.048502576
83	0xbce5507c	-0.02799248
84	0xbe7f2e72	-0.24920061
85	0x3e2383d0	0.15968251
86	0xbd111141	-0.035416845
87	0x3da7a063	0.08184888
88	0x3e8f9334	0.28041995
89	0x3e398167	0.1811577
90	0xbe1ee5c4	-0.15517336
91	0x3e1266ae	0.14296982
92	0x3e3872cb	0.1801254
93	0xbbf6d824	-0.00753309
94	0xbc88625e	-0.016648468
95	0xbe0a9b7b	-0.13535874
96	0xbe71b666	-0.23604736
97	0xbe28f2b2	-0.16498831
98	0xbe358c6e	-0.17729351
99	0xbe69a724	-0.22817665
100	0x3d665347	0.056231763
101	0xbde23e6b	-0.110470615
102	0x3e194842	0.1496897
103	0xbe8f357b	-0.2797049
104	0x3eaed7e4	0.34149086
105	0x3cd52b5e	0.026021656
106	0x3e0cee82	0.13762859
107	0x3ea68fd8	0.3253162
108	0xbd174037	-0.036926474
109	0x3f0e5972	0.5560523
110	0x3e08dd54	0.1336568
111	0x3e532bc7	0.20622168
112	0x3e358723	0.17727332
113	0xbd92da28	-0.07170516
114	0x3eeb81e6	0.45997542
115	0x3d2ac8f6	0.041695558
116	0x3ec28f56	0.37999982
117	0xbdbc20db	-0.09185954
118	0x3e966fac	0.29382074
119	0xbe364547	-0.17799865
120	0xbd2cea62	-0.042215712
121	0x3e4d3abf	0.20041941
122	0x3dea319d	0.11435244
123	0x3e7625eb	0.24037902
124	0x3eac7ebc	0.3369044
125	0x3e9fd2e0	0.31215572
126	0xbdb2d2fa	-0.08731647
127	0x3edaf1fd	0.42762747
128	0x3e81291c	0.25226676
129	0xbb428125	-0.0029679027
130	0x3d0040d0	0.03131181
131	0x3e6a049a	0.22853318
132	0x3dd21cbc	0.10259387
133	0x3f06d57c	0.526695
134	0x3e9d0d36	0.30674142
135	0xbe325961	-0.17416908
136	0x3e9f6188	0.31129098
137	0x3ed963be	0.4245891
138	0xbdf3bf9f	-0.11901783
139	0x3e09a6d4	0.13442546
140	0x3d8e7749	0.069563456
141	0x3ddc5df8	0.107601106
142	0xbe366d8b	-0.17815225
143	0x3e8521ff	0.260025
144	0x3dfd7834	0.123764426
145	0x3d93516c	0.07193264
146	0x3ea6fef7	0.32616398
147	0x3e6b477a	0.22976485
148	0x3d65c36d	0.056094576
149	0x3e7181f8	0.23584735
150	0xbce50958	-0.027958557
151	0x3e0509df	0.12992047
152	0xbd5eae8e	-0.054365687
153	0x3e2d8618	0.16945684
154	0x3dbcd2ef	0.0921992
155	0x3e2f2689	0.17104544
156	0x3dcc3651	0.099712975
157	0xbe2f28df	-0.17105435
158	0x3d995feb	0.07488998
159	0x3dfa0880	0.122086525
160	0x3e964c21	0.29354957
161	0x3e9f9460	0.3116789
162	0x3ea0dbc5	0.3141767
163	0x3e96a871	0.29425386
164	0x3e398335	0.18116458
165	0x3e0d5ebb	0.13805668
166	0xbd7005a2	-0.058599122
167	0xbdc8e822	-0.09809901
168	0xbe027245	-0.12738903
169	0xbdd7dffb	-0.10540768
170	0xbcd2adfe	-0.025717732
171	0x3ebfb8d0	0.37445688
172	0x3cf10163	0.029419607
173	0x3e4b34a6	0.19844303
174	0xbd2e8669	-0.042608652
175	0x3c0b93e4	0.008519147
176	0xbe8f38e9	-0.27973107
177	0x3e1b6e15	0.15178712
178	0x3d20853e	0.03918957
179	0x3e15d9d5	0.14633878
180	0x3cbcdb77	0.023053868
181	0x3e2b03e6	0.16700706
182	0xbcc3365f	-0.023829637
183	0xbea6cbd0	-0.32577372
184	0xbe8fbc50	-0.2807336
185	0xbdecb7c4	-0.11558488
186	0x3e01639b	0.12635653
187	0x3e608732	0.21926573
188	0xbef98fbf	-0.48742482
189	0x3e178745	0.14797695
190	0x3e643d52	0.22289017
191	0x3cd8e9db	0.026478698
192	0xbdae12e4	-0.08499697
193	0xbe29814c	-0.16553229
194	0xbf2351d3	-0.6379673
195	0xbdc6fa40	-0.097157
196	0xbf0b2bbf	-0.54363626
197	0xbe101a19	-0.14072455
198	0xbf1b6082	-0.60694134
199	0xbecef0f8	-0.4041822
200	0x3d8c0322	0.06836535
201	0x3dcddbe2	0.10051705
202	0x3e4d68b6	0.20059475
203	0xbcf8d3be	-0.030374404
204	0x3c691eea	0.014228562
205	0x3bb0e42d	0.0053982944
206	0xbf09f01a	-0.5388199
207	0xbbb74c8d	-0.0055938424
208	0x3dd626fa	0.10456653
209	0x3d87d39c	0.06632158
210	0x3dbc868a	0.09205349
211	0x3d9d66a1	0.076855905
212	0x3cec4c37	0.028844936
213	0x3d1aaea3	0.037764203
214	0x3db7f96d	0.08983121
215	0x3df1551f	0.11783814
216	0x3c73432e	0.01484756
217	0x3d6ecc9f	0.05830061
218	0x3d403b42	0.046931513
219	0xbe552a12	-0.2081683
220	0x3d4e0044	0.050293222
221	0x3d6b43a6	0.05743756
222	0x3d488188	0.048951656
223	0x3e2a6f26	0.16643962
224	0x3e4efa09	0.20212568
225	0x3e98b38c	0.29824483
226	0x3e2fc307	0.17164241
227	0x3e0d749d	0.13814016
228	0x3dce03a7	0.100592904
229	0x3e46c6f9	0.1941184
230	0xbcd43b98	-0.025907323
231	0xbe0bce5e	-0.13652942
232	0x3e80ff57	0.2519481
233	0x3b7c8a25	0.003853449
234	0x3e445fc6	0.1917716
235	0x3e94548d	0.28970757
236	0x3cd91a6b	0.026501855
237	0x3db7d8f8	0.089769304
238	0x3e795002	0.24346927
239	0x3e6e90a9	0.23297371
240	0xbedbf6ed	-0.42961827
241	0x3ebe2938	0.37140822
242	0xbd986a67	-0.0744217
243	0x3e4d6be8	0.20060694
244	0x3dd2e9e4	0.10298517
245	0x3d99cb9d	0.07509539
246	0xbe83788b	-0.25677904
247	0xbe2ad458	-0.16682565
248	0xbd9d8a6a	-0.07692416
249	0xbd2e11ca	-0.042497434
250	0xbe82f8a0	-0.2558031
251	0x3bdd08ea	0.0067454474
252	0xbc2b78af	-0.010465785
253	0xbc2a0343	-0.010376754
254	0x3e8c5759	0.2741039
255	0xbd335b36	-0.043788157

lstm1.weight_hh_l0 f4 [256, 64]
0	0x3d9861c0	0.07440519
1	0xbd7d09e3	-0.061777007
2	0x3ea2c1d0	0.31788492
3	0x3e1fe66f	0.15615247
4	0x3e3f0943	0.18655877
5	0x3e4ff410	0.20307946
6	0xbc0c4079	-0.008560293
7	0x3ea10741	0.31450847
8	0x3e74e16e	0.2391412
9	0xbf091ffd	-0.53564435
10	0x3e67bff6	0.22631821
11	0x3e92de49	0.28685215
12	0xbe48a7ca	-0.19595256
13	0x3e949f6b	0.29027876
14	0xbd9c0f9a	-0.07620163
15	0xbe3484c3	-0.1762877
16	0xbe2acec7	-0.16680442
17	0xbbdbc1c8	-0.00670645
18	0xbe552515	-0.20814927
19	0xbdea0229	-0.11426193
20	0xbd7898ff	-0.060692783
21	0x3c7f9169	0.015598633
22	0xbef6e9cb	-0.48225245
23	0x3e0e9412	0.13923672
24	0xbe8d3a8c	-0.2758373
25	0x3ea17027	0.31530878
26	0x3db9207e	0.090394005
27	0xbe2a59b0	-0.16635776
28	0xbd885fba	-0.066588834
29	0x3ddc6603	0.10761645
30	0x3ea6e5e8	0.3259728
31	0x3dc19637	0.09452479
32	0xbe4b80aa	-0.198733
33	0xbe2437a2	-0.16036847
34	0xbe95b672	-0.29240757
35	0x3ded69f3	0.11592474
36	0xbe22423f	-0.15845583
37	0x3ef4f28b	0.47841296
38	0xbd83cb81	-0.064353
39	0xbe9df5f6	-0.30851716
40	0x3e981b45	0.29708305
41	0xbecd5590	-0.40104342
42	0x3dad16a6	0.084515855
43	0x3b2d4256	0.0026437244
44	0x3d9c495c	0.0763118
45	0x3e0e0485	0.13868912
46	0x3dc1d619	0.09464664
47	0x3dbce841	0.092239864
48	0xbe005011	-0.12530543
49	0x3e245406	0.16047677
50	0xbca78d04	-0.020452984
51	0x3d306375	0.0430636
52	0xbd43c701	-0.047797207
53	0x3de91ce2	0.11382462
54	0x3e45b031	0.19305493
55	0xbe0b1c11	-0.13584925
56	0x3ea79853	0.32733402
57	0xbdef451e	-0.11683105
58	0x3e03e766	0.1288124
59	0xbdfca11e	-0.12335418
60	0xbb886795	-0.0041627386
61	0x3ce353ac	0.027749859
62	0x3e409c5e	0.1880965
63	0x3e17e2f2	0.14832667
64	0x3d280b87	0.04102662
65	0xbdf85a91	-0.12126649
66	0x3ec66c15	0.38754335
67	0xbdf84941	-0.12123347
68	0x3df047c1	0.11732436
69	0x3dda99ea	0.10673888
70	0x3ecb4bcf	0.39706275
71	0x3ef9ecb9	0.48813418
72	0x3df148bd	0.11781452
73	0xbe5319ed	-0.20615359
74	0xbe512ab7	-0.2042645
75	0x3d2f6b33	0.042826843
76	0xbe3149bd	-0.17313285
77	0x3e305b1c	0.17222255
78	0x3edda351	0.43288663
79	0xbe0ab876	-0.13546929
80	0xbdf6362c	-0.12022051
81	0x3e3f1601	0.18660738
82	0xbf01c258	-0.5068717
83	0xbeaf7312	-0.3426748
84	0x3ea24e23	0.3170024
85	0xbced9772	-0.029002879
86	0x3dc6d4c3	0.0970855
87	0x3e0cc71e	0.13747832
88	0xbe3f87c2	-0.18704131
89	0xbe47b283	-0.1950169
90	0xbd0ab8d3	-0.03386767
91	0xbd32b843	-0.043632757
92	0x3e0c61d2	0.1370919
93	0x3ed8d764	0.4235183
94	0xbd2c7ff5	-0.042114217
95	0x3dfd12b7	0.12357085
96	0x3dedf1c9	0.116183825
97	0x3c8364af	0.01603922
98	0x3da4cc12	0.08046736
99	0xbe662173	-0.22473697
100	0x3d99e6a7	0.075146966
101	0xbeae52c1	-0.3404751
102	0xbd108e4a	-0.035291947
103	0x3cca01bc	0.02465903
104	0xbd61dc56	-0.05514177
105	0xbee2509a	-0.4420212
106	0x3e3c415d	0.18384309
107	0x3c074248	0.008255549
108	0x3e5649ff	0.20926665
109	0xbd313e3c	-0.043272242
110	0x3dfcfd9e	0.12353061
111	0x3e5fcfaa	0.21856561
112	0x3eca40ac	0.39502466
113	0xbba62d22	-0.005071298
114	0xbed23162	-0.410533
115	0xbdb29ea2	-0.08721663
116	0x3ea5f709	0.32415035
117	0xbe9d6046	-0.30737513
118	0xbe8c98f2	-0.27460438
119	0xbc10daa3	-0.00884119
120	0x3e04182c	0.12899846
121	0xbe628fb5	-0.22125132
122	0xbe93189c	-0.28729713
123	0x3d937dea	0.072017506
124	0xbdd58045	-0.10424856
125	0xbe6c1b79	-0.23057355
126	0x3d2ea56e	0.042638235
127	0xbd66c036	-0.05633565
128	0x3d8ab520	0.06772828
129	0x3de2d358	0.11075467
130	0xbe847409	-0.25869778
131	0x3db22dfb	0.08700176
132	0xbd9e395a	-0.07725783
133	0xbda37064	-0.07980421
134	0x3ec72400	0.38894653
135	0xbeff33fb	-0.49844345
136	0xbe949231	-0.29017785
137	0x3e907b22	0.28218943
138	0x3d9d8a77	0.07692426
139	0x3e62a971	0.2213495
140	0x3dc71dfc	0.09722516
141	0x3d158a5c	0.036508903
142	0x3e80ce0e	0.25157207
143	0xbe8036c1	-0.25041774
144	0xbe962772	-0.2932697
145	0x3eaa7c22	0.3329783
146	0xbe51c0e0	-0.20483732
147	0x3e895317	0.26821205
148	0xbcc775cd	-0.024348164
149	0xbedccfad	-0.43127194
150	0xbdcd1af8	-0.100149095
151	0xbd18078a	-0.037116565
152	0x3e187978	0.14890087
153	0x3d975690	0.07389557
154	0x3cd90fd4	0.026496805
155	0x3eb7dd5f	0.3591108
156	0xbecd61ef	-0.4011378
157	0xbd9f7c63	-0.07787397
158	0xbd4f4bfd	-0.050609577
159	0x3e96de41	0.2946644
160	0x3ecc4ae8	0.399009
161	0x3e805dbf	0.25071523
162	0x3db1ccae	0.08681618
163	0x3f32377e	0.69615924
164	0xbc88790a	-0.016659278
165	0x3d0fed9b	0.035138708
166	0xbf01b8ad	-0.5067242
167	0x3eab74cf	0.33487555
168	0x3eb7deee	0.3591227
169	0xbd869498	-0.06571311
170	0xbdbdabde	-0.09261297
171	0x3d212036	0.03933736
172	0xbd9f2c0a	-0.07772072
173	0x3c427c4b	0.011870454
174	0x3e648d78	0.22319591
175	0x3e4a15af	0.19734834
176	0xbd43e736	-0.04782792
177	0x3df26f30	0.118376136
178	0x3ea13b2f	0.31490466
179	0x3f13863c	0.576267
180	0x3e1a85d1	0.1509011
181	0xbe93bf26	-0.28856772
182	0x3eeca6cd	0.4622101
183	0x3eecc943	0.462473
184	0xbe39db2d	-0.18150015
185	0x3e259cc0	0.16173077
186	0xbcadbed2	-0.021209154
187	0xbdc4b137	-0.096041135
188	0x3e641bb3	0.22276191
189	0x3e7c3c3a	0.2463235
190	0xbf0db016	-0.5534681
191	0x3eadc5ac	0.33939874
192	0xbe543a56	-0.20725378
193	0x3da43d5a	0.080195144
194	0xbcd29a23	-0.025708264
195	0xbe8d9fea	-0.27661067
196	0x3e01fc71	0.12693955
197	0xbe7fddc7	-0.24986945
198	0x3d5f9e9d	0.054594625
199	0xbc7555eb	-0.014974098
200	0xbe2358d5	-0.15951855
201	0x3d48ef9f	0.049056645
202	0x3dd1ffef	0.102538936
203	0xbde630f6	-0.11239807
204	0xbeadfcc9	-0.33981922
205	0x3e3500fb	0.17676155
206	0xbea00d31	-0.31260064
207	0x3e8d06b5	0.2754418
208	0xbe654252	-0.2238858
209	0x3e6f23d2	0.23353508
210	0x3d936a7f	0.07198047
211	0x3e51e4d7	0.20497452
212	0xbe4eea84	-0.20206648
213	0x3dd19e2d	0.10235248
214	0x3ddf9865	0.10917739
215	0x3e487a02	0.19577792
216	0x3dbdc8e9	0.09266836
217	0x3ddb5317	0.107092075
218	0xbe8841c2	-0.2661267
219	0x3ec61d13	0.38694057
220	0x3e08fa02	0.1337662
221	0xbdb8c30f	-0.090215795
222	0x3e013e6b	0.12621467
223	0x3cc3a024	0.023880072
224	0xbd75233c	-0.059848055
225	0x3d8da4b9	0.06916184
226	0x3e9afa4a	0.3026908
227	0xbca9c3cb	-0.020723244
228	0x3e5a9b80	0.21348381
229	0x3d8a8896	0.06764333
230	0x3e154116	0.1457561
231	0x3e900ca9	0.2813466
232	0x3d7435a9	0.059621487
233	0x3e7917e8	0.24325526
234	0xbe48d58f	-0.19612716
235	0x3d68fd43	0.056882154
236	0x3d039ba5	0.032130856
237	0xb9afe28b	-0.0003354739
238	0x3edf4bbd	0.4361247
239	0x3e6127f5	0.21987899
240	0xbdac7990	-0.08421624
241	0xbe068cb4	-0.13139611
242	0x3d1c71c0	0.038194418
243	0xbde00c27	-0.10939818
244	0x3e6869d7	0.22696625
245	0xbd0ca6be	-0.034338705
246	0x3ce0ff6e	0.027465548
247	0xbc8bf676	-0.017085295
248	0x3e916ea5	0.28404728
249	0xbe325089	-0.17413534
250	0xbcac08a0	-0.021000206
251	0x3c298425	0.010346447
252	0x3e9aa455	0.302035
253	0x3ebf57a1	0.37371543
254	0xbe5def1b	-0.21673243
255	0x3d8d910e	0.069124326

lstm1.bias_ih_l0 f4 [256]
0	0x3d97f858	0.07420415
1	0xbdcc44f9	-0.09974093
2	0x3e01cb0d	0.12675114
3	0x3d8685da	0.06568499
4	0x3e566086	0.20935258
5	0xbe30bdad	-0.17259856
6	0xbd0fca2f	-0.035104927
7	0xbe38a4d6	-0.1803163
8	0xbea6c3df	-0.32571313
9	0xbbd7fc62	-0.0065913657
10	0x3cd7e6c0	0.026355147
11	0xbd6ecdc8	-0.058301717
12	0xbe039c17	-0.12852512
13	0xbe1d0437	-0.15333639
14	0xbe645704	-0.22298819
15	0xbe34a670	-0.17641616
16	0xbdfa6bf2	-0.1222762
17	0xbdca50d2	-0.098786965
18	0xbcb5a70e	-0.022174384
19	0x3e12b414	0.14326507
20	0xbe8a3792	-0.26995522
21	0x3e112e92	0.14177921
22	0xbcbc80df	-0.02301067
23	0xbcb14b46	-0.021642338
24	0x3c88bd32	0.016691778
25	0xbe14d4a1	-0.14534236
26	0xbe59ac68	-0.21257174
27	0x3d805d0b	0.062677465
28	0xbde46dc6	-0.1115375
29	0x3e2a8449	0.16652025
30	0x3e3fcec1	0.18731214
31	0xbdae897d	-0.085223176
32	0x3cfeaa44	0.031087048
33	0xbeb5f195	-0.35535875
34	0xbec25032	-0.3795181
35	0x3da1f71e	0.07908462
36	0xbe26450f	-0.16237281
37	0xbe81c0ff	-0.25342557
38	0xbd4efbed	-0.050533224
39	0x3cf2a9b5	0.029621938
40	0x3ca344a8	0.019930199
41	0x3da81ff8	0.082092226
42	0xbe2f0f99	-0.17095794
43	0xbe5f7d44	-0.21825129
44	0xbe8433c3	-0.2582074
45	0xbcdaaff9	-0.026695238
46	0x3e0918eb	0.13388412
47	0x3d9662f9	0.07343096
48	0xbe143652	-0.14473847
49	0xbe7a0d62	-0.24419168
50	0x3baf9659	0.005358499
51	0xbd26cbc3	-0.040721666
52	0x3dd42b2c	0.10359797
53	0x3d3aa4e7	0.04556742
54	0xbdf269d0	-0.118365884
55	0xbe4ba077	-0.19885431
56	0xbcfe3d11	-0.031034978
57	0xbd18b170	-0.037278593
58	0xbe64db89	-0.22349371
59	0x3ce39dee	0.027785268
60	0x3e098faf	0.13433717
61	0xbe8aee15	-0.27134767
62	0xbe6675af	-0.2250583
63	0x3c0e767a	0.008695239
64	0x3ca0efd6	0.019645613
65	0xbce4a400	-0.027910233
66	0x3dd25fbe	0.102721676
67	0x3dc016d4	0.09379354
68	0x3e48768a	0.19576469
69	0x3d83251f	0.06403565
70	0xbd859ac7	-0.06523662
71	0x3cfb0f92	0.030647073
72	0xbd0aa481	-0.03384829
73	0x3bdc5aa3	0.006724672
74	0xbca76179	-0.02043222
75	0xbd662006	-0.056182884
76	0xbd2a934f	-0.04164439
77	0x3de471d5	0.11154524
78	0xbd90d975	-0.07072727
79	0xbe4c5d99	-0.1995758
80	0x3e100a7b	0.14066498
81	0xbe157f14	-0.14599258
82	0xbde66eb2	-0.11251582
83	0xbd0cd973	-0.034387063
84	0x3e0e5734	0.13900453
85	0xbd1ba1e0	-0.037996173
86	0x3e25f0a7	0.16205083
87	0xbd1f9a7f	-0.0389657
88	0x3e5b424b	0.21412008
89	0x3dc7d9be	0.09758328
90	0xbe5497b5	-0.20760997
91	0xbdd2db8b	-0.10295781
92	0xbdd199d0	-0.102344155
93	0xbcd63b3b	-0.02615129
94	0x3ddde53b	0.10834738
95	0xbd79ad60	-0.06095636
96	0xbb8c876d	-0.004288605
97	0xbe5aedc6	-0.21379766
98	0x3e2db3ff	0.16963194
99	0x3e25f498	0.16206586
100	0xbe2f8d46	-0.17143735
101	0x3bd1ac76	0.006398733
102	0xbe0143f1	-0.12623574
103	0x3e8888a6	0.26666754
104	0xbbdf6057	-0.0068169045
105	0xbdd88c40	-0.105736256
106	0x3bc1c7d7	0.0059137153
107	0xbe44ba20	-0.19211626
108	0xbd1d90de	-0.038468234
109	0x3d225ec4	0.039641157
110	0x3df92ab9	0.12166352
111	0x3e5be954	0.21475726
112	0x3e37b3c7	0.17939673
113	0xbe080480	-0.13282967
114	0xbdc42b54	-0.09578577
115	0x3e11431a	0.14185753
116	0xbe2f602d	-0.17126532
117	0x3ddd5838	0.10807842
118	0x3d1084e5	0.035282988
119	0xbdd8fce0	-0.10595107
120	0xbe456c79	-0.1927966
121	0xbc12f03d	-0.00896841
122	0xbbf6a753	-0.007527271
123	0xbe0a2663	-0.13491206
124	0xbd77f6f0	-0.060538232
125	0xbd8244d6	-0.06360786
126	0xbe073b8b	-0.13206308
127	0xbdbf78ff	-0.0934925
128	0x3d880211	0.06641019
129	0xbd2d87dd	-0.042365897
130	0xbde70a33	-0.11281242
131	0x3e0c2066	0.13684234
132	0x3da629f9	0.081134744
133	0x3c7d3b5d	0.015456048
134	0xbdff2976	-0.1245908
135	0x3d6ca171	0.05777115
136	0x3d6e6086	0.05819752
137	0x3bda56e1	0.006663189
138	0x3b6f95f2	0.003655788
139	0x3ca1f238	0.01976882
140	0x3cce82a9	0.025208788
141	0xbdc881f3	-0.09790411
142	0xbd24177a	-0.04006145
143	0x3e093935	0.13400729
144	0x3d20d720	0.03926766
145	0xbcfc1579	-0.030771958
146	0x3e6d43a1	0.2317033
147	0xbcb83d26	-0.022490095
148	0xbbf9248b	-0.007603233
149	0xbdb014d2	-0.08597721
150	0x3de302d3	0.11084523
151	0xbdafae76	-0.08578198
152	0x39400ce4	0.00018315349
153	0xbdf2142b	-0.11820253
154	0xbda6b324	-0.08139637
155	0x3d6f8d7b	0.058484536
156	0xbdc6414c	-0.09680423
157	0x3e538b08	0.20658505
158	0xbda3467a	-0.07972427
159	0xbc0308bc	-0.007997688
160	0x3d23ae99	0.03996143
161	0x3c0ded88	0.008662589
162	0x3d5b15fa	0.053487755
163	0x3d8bbf63	0.068236135
164	0x3e6056c2	0.21908095
165	0x3de36176	0.111025736
166	0x3d1f1b27	0.038844254
167	0xbdc878db	-0.09788676
168	0x3e07d11e	0.13263366
169	0xbd3c6da1	-0.046002988
170	0xbcb27d2e	-0.021788206
171	0x3e65e8ae	0.22452042
172	0x3d84dde2	0.06487633
173	0x3dcd160c	0.10013971
174	0xbd23d701	-0.039999966
175	0xbd516207	-0.051118877
176	0xbd29f01b	-0.041488748
177	0xbdb66714	-0.08906379
178	0xbd078206	-0.033082984
179	0xbe159dbe	-0.14610955
180	0xbd4b76b3	-0.049673747
181	0x3df6d8af	0.12053048
182	0xbdc16cbe	-0.09444569
183	0x3c4290a8	0.011875309
184	0xbd870df8	-0.06594461
185	0x3df65c04	0.12029269
186	0xbdffa3b5	-0.124823965
187	0xbd662d3e	-0.05619549
188	0x3d994b21	0.07485033
189	0x3e0e0bb5	0.13871653
190	0x3d0b9275	0.03407522
191	0xbdbe73b8	-0.09299415
192	0xbe1c78a9	-0.15280403
193	0xbd96e7f8	-0.07368463
194	0x3dacd4f6	0.084390566
195	0x3c8f4be1	0.017492237
196	0xbe00f134	-0.12592012
197	0xbd34dafb	-0.04415415
198	0xbe22d8ab	-0.15902965
199	0xbdf1eeda	-0.118131354
200	0xbd17b80c	-0.037040755
201	0xbd090a77	-0.033457246
202	0xbd8c2ff3	-0.06845083
203	0x3cb938e3	0.022610134
204	0xbdb48b61	-0.08815647
205	0xbe947340	-0.2899418
206	0xbebc691b	-0.3679894
207	0xbe270f11	-0.16314341
208	0xbe9de900	-0.30841827
209	0xbe9bda6e	-0.30440086
210	0xbe6d09c3	-0.23148255
211	0xbdd157c3	-0.10221817
212	0xbeab5445	-0.3346273
213	0x3c914fd1	0.017738255
214	0xbe5767c0	-0.21035671
215	0x3e059b44	0.1304751
216	0xbe1e766d	-0.15474863
217	0xbed28e74	-0.41124308
218	0xbd6fc1b2	-0.05853433
219	0xbe4db57a	-0.20088759
220	0x3c2d6756	0.010583719
221	0xbe52299f	-0.2052369
222	0xbe166737	-0.14687811
223	0x3e0ab8b4	0.13547021
224	0xbe0e1f1b	-0.13879053
225	0x3b2e0adc	0.0026556766
226	0xbe0fab20	-0.14030123
227	0x3d8bbf67	0.068236165
228	0x3caf7fd9	0.021423267
229	0xbe929cd6	-0.2863528
230	0xbe81daed	-0.2536234
231	0xbe9d3a38	-0.3070848
232	0xbe13d9a8	-0.14438498
233	0x3cccace9	0.024984794
234	0xbe32eaec	-0.17472428
235	0xbe39c710	-0.18142343
236	0xbeb5c14a	-0.3549903
237	0x3d9510dd	0.07278607
238	0xbe895e28	-0.26829648
239	0xbe35b2cd	-0.17743988
240	0xbdeb4aa0	-0.11488843
241	0xbe2807d1	-0.16409232
242	0xbca44251	-0.020051153
243	0xbc903de4	-0.017607637
244	0xbd9ad8f8	-0.07560915
245	0xbd230742	-0.039801843
246	0xbd30587c	-0.043053135
247	0xbdafab27	-0.085775666
248	0xbdd70eca	-0.10500868
249	0xbdc25f5f	-0.09490847
250	0xbd6306a8	-0.05542627
251	0x3e20c5cf	0.15700458
252	0x3e3752de	0.17902705
253	0xbe7f9746	-0.2496005
254	0xbe77bbd0	-0.24192739
255	0xbcf74178	-0.030182585

lstm1.bias_hh_l0 f4 [256]
0	0x3d97f858	0.07420415
1	0xbdcc44f9	-0.09974093
2	0x3e01cb0d	0.12675114
3	0x3d8685da	0.06568499
4	0x3e566086	0.20935258
5	0xbe30bdad	-0.17259856
6	0xbd0fca2f	-0.035104927
7	0xbe38a4d6	-0.1803163
8	0xbea6c3df	-0.32571313
9	0xbbd7fc62	-0.0065913657
10	0x3cd7e6c0	0.026355147
11	0xbd6ecdc8	-0.058301717
12	0xbe039c17	-0.12852512
13	0xbe1d0437	-0.15333639
14	0xbe645704	-0.22298819
15	0xbe34a670	-0.17641616
16	0xbdfa6bf2	-0.1222762
17	0xbdca50d2	-0.098786965
18	0xbcb5a70e	-0.022174384
19	0x3e12b414	0.14326507
20	0xbe8a3792	-0.26995522
21	0x3e112e92	0.14177921
22	0xbcbc80df	-0.02301067
23	0xbcb14b46	-0.021642338
24	0x3c88bd32	0.016691778
25	0xbe14d4a1	-0.14534236
26	0xbe59ac68	-0.21257174
27	0x3d805d0b	0.062677465
28	0xbde46dc6	-0.1115375
29	0x3e2a8449	0.16652025
30	0x3e3fcec1	0.18731214
31	0xbdae897d	-0.085223176
32	0x3cfeaa44	0.031087048
33	0xbeb5f195	-0.35535875
34	0xbec25032	-0.3795181
35	0x3da1f71e	0.07908462
36	0xbe26450f	-0.16237281
37	0xbe81c0ff	-0.25342557
38	0xbd4efbed	-0.050533224
39	0x3cf2a9b5	0.029621938
40	0x3ca344a8	0.019930199
41	0x3da81ff8	0.082092226
42	0xbe2f0f99	-0.17095794
43	0xbe5f7d44	-0.21825129
44	0xbe8433c3	-0.2582074
45	0xbcdaaff9	-0.026695238
46	0x3e0918eb	0.13388412
47	0x3d9662f9	0.07343096
48	0xbe143652	-0.14473847
49	0xbe7a0d62	-0.24419168
50	0x3baf9659	0.005358499
51	0xbd26cbc3	-0.040721666
52	0x3dd42b2c	0.10359797
53	0x3d3aa4e7	0.04556742
54	0xbdf269d0	-0.118365884
55	0xbe4ba077	-0.19885431
56	0xbcfe3d11	-0.031034978
57	0xbd18b170	-0.037278593
58	0xbe64db89	-0.22349371
59	0x3ce39dee	0.027785268
60	0x3e098faf	0.13433717
61	0xbe8aee15	-0.27134767
62	0xbe6675af	-0.2250583
63	0x3c0e767a	0.008695239
64	0x3ca0efd6	0.019645613
65	0xbce4a400	-0.027910233
66	0x3dd25fbe	0.102721676
67	0x3dc016d4	0.09379354
68	0x3e48768a	0.19576469
69	0x3d83251f	0.06403565
70	0xbd859ac7	-0.06523662
71	0x3cfb0f92	0.030647073
72	0xbd0aa481	-0.03384829
73	0x3bdc5aa3	0.006724672
74	0xbca76179	-0.02043222
75	0xbd662006	-0.056182884
76	0xbd2a934f	-0.04164439
77	0x3de471d5	0.11154524
78	0xbd90d975	-0.07072727
79	0xbe4c5d99	-0.1995758
80	0x3e100a7b	0.14066498
81	0xbe157f14	-0.14599258
82	0xbde66eb2	-0.11251582
83	0xbd0cd973	-0.034387063
84	0x3e0e5734	0.13900453
85	0xbd1ba1e0	-0.037996173
86	0x3e25f0a7	0.16205083
87	0xbd1f9a7f	-0.0389657
88	0x3e5b424b	0.21412008
89	0x3dc7d9be	0.09758328
90	0xbe5497b5	-0.20760997
91	0xbdd2db8b	-0.10295781
92	0xbdd199d0	-0.102344155
93	0xbcd63b3b	-0.02615129
94	0x3ddde53b	0.10834738
95	0xbd79ad60	-0.06095636
96	0xbb8c876d	-0.004288605
97	0xbe5aedc6	-0.21379766
98	0x3e2db3ff	0.16963194
99	0x3e25f498	0.16206586
100	0xbe2f8d46	-0.17143735
101	0x3bd1ac76	0.006398733
102	0xbe0143f1	-0.12623574
103	0x3e8888a6	0.26666754
104	0xbbdf6057	-0.0068169045
105	0xbdd88c40	-0.105736256
106	0x3bc1c7d7	0.0059137153
107	0xbe44ba20	-0.19211626
108	0xbd1d90de	-0.038468234
109	0x3d225ec4	0.039641157
110	0x3df92ab9	0.12166352
111	0x3e5be954	0.21475726
112	0x3e37b3c7	0.17939673
113	0xbe080480	-0.13282967
114	0xbdc42b54	-0.09578577
115	0x3e11431a	0.14185753
116	0xbe2f602d	-0.17126532
117	0x3ddd5838	0.10807842
118	0x3d1084e5	0.035282988
119	0xbdd8fce0	-0.10595107
120	0xbe456c79	-0.1927966
121	0xbc12f03d	-0.00896841
122	0xbbf6a753	-0.007527271
123	0xbe0a2663	-0.13491206
124	0xbd77f6f0	-0.060538232
125	0xbd8244d6	-0.06360786
126	0xbe073b8b	-0.13206308
127	0xbdbf78ff	-0.0934925
128	0x3d880211	0.06641019
129	0xbd2d87dd	-0.042365897
130	0xbde70a33	-0.11281242
131	0x3e0c2066	0.13684234
132	0x3da629f9	0.081134744
133	0x3c7d3b5d	0.015456048
134	0xbdff2976	-0.1245908
135	0x3d6ca171	0.05777115
136	0x3d6e6086	0.05819752
137	0x3bda56e1	0.006663189
138	0x3b6f95f2	0.003655788
139	0x3ca1f238	0.01976882
140	0x3cce82a9	0.025208788
141	0xbdc881f3	-0.09790411
142	0xbd24177a	-0.04006145
143	0x3e093935	0.13400729
144	0x3d20d720	0.03926766
145	0xbcfc1579	-0.030771958
146	0x3e6d43a1	0.2317033
147	0xbcb83d26	-0.022490095
148	0xbbf9248b	-0.007603233
149	0xbdb014d2	-0.08597721
150	0x3de302d3	0.11084523
151	0xbdafae76	-0.08578198
152	0x39400ce4	0.00018315349
153	0xbdf2142b	-0.11820253
154	0xbda6b324	-0.08139637
155	0x3d6f8d7b	0.058484536
156	0xbdc6414c	-0.09680423
157	0x3e538b08	0.20658505
158	0xbda3467a	-0.07972427
159	0xbc0308bc	-0.007997688
160	0x3d23ae99	0.03996143
161	0x3c0ded88	0.008662589
162	0x3d5b15fa	0.053487755
163	0x3d8bbf63	0.068236135
164	0x3e6056c2	0.21908095
165	0x3de36176	0.111025736
166	0x3d1f1b27	0.038844254
167	0xbdc878db	-0.09788676
168	0x3e07d11e	0.13263366
169	0xbd3c6da1	-0.046002988
170	0xbcb27d2e	-0.021788206
171	0x3e65e8ae	0.22452042
172	0x3d84dde2	0.06487633
173	0x3dcd160c	0.10013971
174	0xbd23d701	-0.039999966
175	0xbd516207	-0.051118877
176	0xbd29f01b	-0.041488748
177	0xbdb66714	-0.08906379
178	0xbd078206	-0.033082984
179	0xbe159dbe	-0.14610955
180	0xbd4b76b3	-0.049673747
181	0x3df6d8af	0.12053048
182	0xbdc16cbe	-0.09444569
183	0x3c4290a8	0.011875309
184	0xbd870df8	-0.06594461
185	0x3df65c04	0.12029269
186	0xbdffa3b5	-0.124823965
187	0xbd662d3e	-0.05619549
188	0x3d994b21	0.07485033
189	0x3e0e0bb5	0.13871653
190	0x3d0b9275	0.03407522
191	0xbdbe73b8	-0.09299415
192	0xbe1c78a9	-0.15280403
193	0xbd96e7f8	-0.07368463
194	0x3dacd4f6	0.084390566
195	0x3c8f4be1	0.017492237
196	0xbe00f134	-0.12592012
197	0xbd34dafb	-0.04415415
198	0xbe22d8ab	-0.15902965
199	0xbdf1eeda	-0.118131354
200	0xbd17b80c	-0.037040755
201	0xbd090a77	-0.033457246
202	0xbd8c2ff3	-0.06845083
203	0x3cb938e3	0.022610134
204	0xbdb48b61	-0.08815647
205	0xbe947340	-0.2899418
206	0xbebc691b	-0.3679894
207	0xbe270f11	-0.16314341
208	0xbe9de900	-0.30841827
209	0xbe9bda6e	-0.30440086
210	0xbe6d09c3	-0.23148255
211	0xbdd157c3	-0.10221817
212	0xbeab5445	-0.3346273
213	0x3c914fd1	0.017738255
214	0xbe5767c0	-0.21035671
215	0x3e059b44	0.1304751
216	0xbe1e766d	-0.15474863
217	0xbed28e74	-0.41124308
218	0xbd6fc1b2	-0.05853433
219	0xbe4db57a	-0.20088759
220	0x3c2d6756	0.010583719
221	0xbe52299f	-0.2052369
222	0xbe166737	-0.14687811
223	0x3e0ab8b4	0.13547021
224	0xbe0e1f1b	-0.13879053
225	0x3b2e0adc	0.0026556766
226	0xbe0fab20	-0.14030123
227	0x3d8bbf67	0.068236165
228	0x3caf7fd9	0.021423267
229	0xbe929cd6	-0.2863528
230	0xbe81daed	-0.2536234
231	0xbe9d3a38	-0.3070848
232	0xbe13d9a8	-0.14438498
233	0x3cccace9	0.024984794
234	0xbe32eaec	-0.17472428
235	0xbe39c710	-0.18142343
236	0xbeb5c14a	-0.3549903
237	0x3d9510dd	0.07278607
238	0xbe895e28	-0.26829648
239	0xbe35b2cd	-0.17743988
240	0xbdeb4aa0	-0.11488843
241	0xbe2807d1	-0.16409232
242	0xbca44251	-0.020051153
243	0xbc903de4	-0.017607637
244	0xbd9ad8f8	-0.07560915
245	0xbd230742	-0.039801843
246	0xbd30587c	-0.043053135
247	0xbdafab27	-0.085775666
248	0xbdd70eca	-0.10500868
249	0xbdc25f5f	-0.09490847
250	0xbd6306a8	-0.05542627
251	0x3e20c5cf	0.15700458
252	0x3e3752de	0.17902705
253	0xbe7f9746	-0.2496005
254	0xbe77bbd0	-0.24192739
255	0xbcf74178	-0.030182585

lstm1.weight_ih_l0_reverse f4 [256, 158]
0	0xbecf0352	-0.4043222
1	0xbeda30b3	-0.4261528
2	0xbdd2e56e	-0.102976665
3	0xbe119daa	-0.142203
4	0xbeba4045	-0.3637716
5	0xbec59585	-0.38590637
6	0xbe02e121	-0.12781192
7	0xbe0f9f4b	-0.14025609
8	0x3e998277	0.2998235
9	0x3e6e20e0	0.23254728
10	0x3e3a0237	0.18164907
11	0x3e2bdc7b	0.16783325
12	0xbe3a66be	-0.18203256
13	0x3d903bc0	0.070426464
14	0xbe2d0dfb	-0.16899864
15	0xbd23460d	-0.039861728
16	0xbe89891c	-0.2686242
17	0xbe2ac420	-0.16676378
18	0xbf128216	-0.57229745
19	0xbbc49b62	-0.0059999684
20	0xbe3408d0	-0.17581487
21	0xbdc5e098	-0.096619785
22	0xbdd2a53c	-0.10285422
23	0x3ccd5bdd	0.025068218
24	0xbeea9c4c	-0.4582237
25	0xbd55faba	-0.052241065
26	0x3ea79ac8	0.32735276
27	0xbe21942f	-0.15779184
28	0xbe8c32de	-0.2738256
29	0xbe27db27	-0.16392194
30	0x3e9e5339	0.3092287
31	0x3cb7c6b1	0.02243361
32	0x3d7617c3	0.060081255
33	0xbe08dafe	-0.13364789
34	0xbd45eafe	-0.04831981
35	0x3d568cdf	0.05238044
36	0x3e8bcc92	0.27304512
37	0x3de89598	0.11356658
38	0x3d993a10	0.07481778
39	0x3cde162f	0.027110187
40	0x3e056a78	0.13028896
41	0xbda7ab48	-0.08186966
42	0xbe0143f8	-0.12623584
43	0xbc7bf53a	-0.015378291
44	0x3e3e4db6	0.18584332
45	0xbcddbe2a	-0.027068216
46	0x3d1a0e1b	0.03761111
47	0x3c9be41c	0.01902967
48	0x3d978cdc	0.07399914
49	0xbe8c0022	-0.2734385
50	0xbd2c4b88	-0.04206422
51	0xbe9784b6	-0.29593438
52	0xbd3d6e18	-0.04624757
53	0xbe464837	-0.19363485
54	0xbe33fbff	-0.17576598
55	0xbe1f7a06	-0.15573892
56	0xbd603fae	-0.05474823
57	0x3dac94d5	0.08426825
58	0xbe3e4103	-0.18579488
59	0xbe0f1751	-0.13973738
60	0xbe0793c6	-0.13239965
61	0xbdee11a6	-0.1162446
62	0x3dcafa05	0.09910969
63	0xbe1720f7	-0.14758669
64	0xbe26ae47	-0.16277419
65	0x3dcc310c	0.099702924
66	0x3ee9f1f2	0.45692402
67	0x3cf0b121	0.029381337
68	0xbeb59c28	-0.354707
69	0x3dd0b43a	0.101906255
70	0x3e25d3bf	0.16194056
71	0x3e60d2a0	0.21955347
72	0x3e59af6d	0.21258326
73	0x3e64a1e2	0.22327378
74	0x3d9870a3	0.07443359
75	0xbe575bf8	-0.21031177
76	0x3e597892	0.212374
77	0x3e34f008	0.1766969
78	0xbeaa0eb7	-0.33214352
79	0x3e7e72d2	0.24848488
80	0x3e2ae9dc	0.16690773
81	0xbde830bb	-0.113374196
82	0x3ef02ee8	0.46910787
83	0xbce20428	-0.027589872
84	0xbeaf32db	-0.34218487
85	0xbecf243f	-0.4045734
86	0xbea7ddbb	-0.32786354
87	0xbdb20d69	-0.08693964
88	0x3ec38522	0.3818751
89	0x3e41640d	0.18885823
90	0xbe31d954	-0.1736806
91	0x3e9ef3ea	0.31045467
92	0xbd98d8d6	-0.07463233
93	0xbc630387	-0.013855821
94	0x3cd96f12	0.02654222
95	0xbd953a28	-0.07286483
96	0xbe48c41c	-0.1960606
97	0xbe1045cd	-0.14089127
98	0xbe186709	-0.14883055
99	0x3efc1353	0.49233493
100	0xbe0005fa	-0.1250228
101	0x3e2eb183	0.17059903
102	0xbd4ccacc	-0.04999809
103	0x3f04482a	0.51672614
104	0xbe1ab098	-0.15106428
105	0x3b723f14	0.0036963867
106	0x3db4d0ce	0.08828889
107	0x3e278664	0.1635986
108	0xbe901796	-0.28142995
109	0xbe9d7d72	-0.3075977
110	0x3dba7bd0	0.091056466
111	0xbf0da00c	-0.5532234
112	0x3e80f10c	0.25183904
113	0x3e0032a7	0.12519322
114	0x3ecc72b5	0.39931265
115	0xbe3663ca	-0.17811504
116	0xbcc2630e	-0.023728874
117	0xbec81cc9	-0.3908446
118	0x3da7a775	0.08186237
119	0x3d3171a6	0.043321274
120	0x3caf65dd	0.021410877
121	0x3e8cd186	0.27503604
122	0x3ee8baf5	0.45455137
123	0x3e95e940	0.29279518
124	0x3c6eed9e	0.01458302
125	0xbe875bbf	-0.26437184
126	0x3e90ef40	0.28307533
127	0x3e8b65df	0.2722616
128	0x3ea4357a	0.3207205
129	0x3ea36263	0.31911
130	0xbdc9f4d7	-0.098611526
131	0xbecdedf8	-0.40220618
132	0xbdd0705b	-0.1017768
133	0xbe666bf8	-0.22502124
134	0x3e281a87	0.1641637
135	0x3e8eea77	0.27913257
136	0x3e0cd742	0.1375399
137	0xbc8f87fe	-0.0175209
138	0xbcb5402f	-0.022125332
139	0xbe976a9c	-0.29573524
140	0x3e875476	0.26431626
141	0xbef7dd27	-0.48410913
142	0xbdf2885f	-0.11842417
143	0x3d0c33d6	0.034229122
144	0x3ca40bd4	0.020025171
145	0x3ce19624	0.027537413
146	0xbe85bf7a	-0.26122648
147	0x3ee0c807	0.4390261
148	0xbdbcd7bf	-0.09220838
149	0x3e461731	0.19344784
150	0x3e9d73be	0.30752367
151	0xbf0477f0	-0.5174551
152	0xbebc9bbc	-0.36837566
153	0x3e052674	0.1300295
154	0x3e3715f8	0.17879474
155	0x3d58a8b5	0.052895267
156	0x3dd36021	0.103210695
157	0xbdb7dca9	-0.089776345
158	0xbd00411e	-0.0313121
159	0xbd336c3c	-0.043804392
160	0xbd7cd4c5	-0.06172635
161	0xbd7c1d8f	-0.061551627
162	0xbd847b9e	-0.064688906
163	0xbd3dc0ac	-0.046326324
164	0xbd987e87	-0.07446008
165	0xbd0c3474	-0.03422971
166	0xbe50db00	-0.20396042
167	0xbe81a3b3	-0.25320205
168	0x3e5e18f7	0.21689211
169	0x3e5b83d7	0.21437012
170	0x3de30add	0.110860564
171	0xbe81bc97	-0.25339195
172	0x3dae52ec	0.0851191
173	0xbe125151	-0.14288832
174	0x3d71e978	0.059060544
175	0xbe1ecdc1	-0.15508176
176	0x3daf7508	0.08567244
177	0x3df388e8	0.11891347
178	0x3d87df8f	0.06634437
179	0xbde1d034	-0.1102604
180	0x3d970cd1	0.073754914
181	0xbe23b951	-0.15988661
182	0x3d48b13b	0.048997145
183	0xbc992797	-0.018695636
184	0xbd99749d	-0.07492945
185	0xbdc4335e	-0.0958011
186	0x3df77cbe	0.120843396
187	0xbe7535ca	-0.239463
188	0xbe7d3874	-0.24728566
189	0x3dcf57eb	0.10124191
190	0xbd7b8bd6	-0.061412655
191	0xbe9d1ece	-0.30687565
192	0xbe2d603b	-0.1693124
193	0x3d2fcb74	0.042918637
194	0xbe380c4e	-0.17973444
195	0xbd1a2983	-0.037637245
196	0xbe345163	-0.17609172
197	0x3d073160	0.033006072
198	0xbeae5b02	-0.34053808
199	0x3beb3c9e	0.007178857
200	0x3da805ce	0.08204232
201	0x3e06956d	0.13142939
202	0xbea557b3	-0.32293472
203	0x3d8e74cf	0.06955873
204	0x3dc67f57	0.09692257
205	0x3e28f11b	0.16498224
206	0xbe289c42	-0.16465858
207	0xbd4ae046	-0.04953029
208	0xbeac94bc	-0.33707225
209	0xbd4c69de	-0.04990565
210	0xbe8fa0a1	-0.28052238
211	0x3dad8a7c	0.084736794
212	0x3d925fb1	0.07147158
213	0x3ddac9b7	0.10683005
214	0x3d16eaee	0.03684514
215	0xbeb4c38c	-0.3530544
216	0x3e0200b0	0.12695575
217	0x3dd18e8f	0.10232269
218	0x3db16c88	0.08663279
219	0x3e1773d7	0.14790283
220	0xbc8cafa5	-0.017173598
221	0x3d5dc1ef	0.054140028
222	0x3d971926	0.073778436
223	0xbc513ce9	-0.01277087
224	0xbdd5394a	-0.10411318
225	0xbdd9fd12	-0.106439725
226	0xbd9ba3c2	-0.07599594
227	0xbe96299d	-0.29328623
228	0x3d8c67fd	0.06855772
229	0x3cddfdc8	0.027098551
230	0x3ea54794	0.32281172
231	0x3ecad24b	0.39613566
232	0xbd4e4213	-0.050355982
233	0xbe96e878	-0.29474235
234	0x3cf6fc52	0.030149613
235	0xbe88a1ec	-0.26686037
236	0x3ef8b766	0.48577422
237	0xbd9de7fd	-0.07710264
238	0xbee41e6f	-0.4455447
239	0xbe864cf0	-0.26230574
240	0x3ebeeacc	0.3728851
241	0xbea62d3b	-0.32456383
242	0x3dbc893d	0.092058636
243	0x3e6ffeec	0.23437089
244	0xbf1bd935	-0.60878307
245	0x3f058705	0.5215915
246	0xbd912080	-0.07086277
247	0x3c7975d6	0.015225848
248	0xbd985397	-0.074378185
249	0xbec40008	-0.38281274
250	0xbd55bbeb	-0.052181166
251	0xbb1af1f0	-0.002364274
252	0x3c3690a0	0.01114288
253	0x3d937f05	0.072019614
254	0xbe8949c7	-0.268141
255	0x3da26786	0.07929902

lstm1.weight_hh_l0_reverse f4 [256, 64]
0	0x3cf28aca	0.029607195
1	0xbcc1bb43	-0.023648864
2	0x3dd42fb8	0.10360664
3	0x3ea1f0a2	0.316289
4	0xbe8d0ffe	-0.27551264
5	0xbf198502	-0.5996858
6	0x3e20e465	0.15712126
7	0x3e559400	0.20857239
8	0x3e201321	0.15632297
9	0x3df6af0d	0.12045107
10	0xbca28b66	-0.019841861
11	0x3da3da5d	0.08000634
12	0xbe4c1f37	-0.19933783
13	0x3e09be52	0.13451508
14	0x3e49310b	0.19647615
15	0x3e49dd4c	0.19713324
16	0xbdaf9d40	-0.08574915
17	0xbdb1b753	-0.086775444
18	0xbde03d87	-0.109492354
19	0xbeb942c4	-0.3618375
20	0xbec5633f	-0.3855228
21	0x3e33876e	0.17532131
22	0xbe42908d	-0.19000454
23	0xbe724c0d	-0.23661824
24	0xbd9d34ec	-0.0767611
25	0xbe733fd8	-0.23754823
26	0xbe6a0787	-0.22854434
27	0xbe33dcd5	-0.1756471
28	0x3e0db41b	0.13838236
29	0x3c2e3f28	0.010635175
30	0x3e426f51	0.18987776
31	0xbe3ecfe2	-0.18633988
32	0xbec4805e	-0.38379186
33	0x3e196e5d	0.14983507
34	0xbddc6a16	-0.10762422
35	0xbe57e7df	-0.21084546
36	0xbd949342	-0.0725465
37	0xbe38e5ae	-0.18056366
38	0xbee993f3	-0.4562069
39	0xbe358cc4	-0.17729479
40	0xbeb7af17	-0.3587577
41	0xbd90b9fd	-0.070667244
42	0x3d8eb6c3	0.06968453
43	0x3b8d1882	0.0043059
44	0x3eb0a984	0.3450433
45	0x3f282683	0.65683764
46	0x3edea783	0.43487176
47	0xbe9d28d8	-0.30695224
48	0x3ead337c	0.33828342
49	0x3e52583d	0.20541473
50	0x3d9017b9	0.07035775
51	0xbeed7db0	-0.46384954
52	0xbd0cd2ec	-0.03438084
53	0x3e3f1dd9	0.1866373
54	0x3e11732d	0.14204092
55	0xbf3cc635	-0.7373994
56	0xbe7cc932	-0.24686125
57	0xbc6e4866	-0.014543628
58	0xbcb31ef4	-0.021865346
59	0xbca66863	-0.020313447
60	0xbe1be8e0	-0.15225554
61	0xbe9d95fc	-0.30778491
62	0x3c86df86	0.016464006
63	0x3ddcb559	0.10776777
64	0xbe5c3116	-0.215031
65	0x3e0ca475	0.1373461
66	0xbf013356	-0.5046896
67	0xbde2792a	-0.110582665
68	0xbde238a3	-0.11045959
69	0xbd20caf5	-0.039256055
70	0x3e7b736f	0.24555753
71	0x3ebaaa66	0.3645813
72	0xbd5de1d4	-0.054170445
73	0x3ee265ab	0.44218192
74	0x3ed89cb4	0.42307055
75	0x3e393007	0.18084727
76	0x3f1ed9cb	0.62051076
77	0x3dbb06de	0.09132169
78	0xbd534f2f	-0.051589187
79	0x3dd91080	0.1059885
80	0x3e1574c5	0.14595325
81	0x3e9c4e7e	0.30528635
82	0xbf091ef0	-0.5356283
83	0xbe8149e7	-0.25251696
84	0x3dcbb41a	0.09946461
85	0x3b204a66	0.0024458407
86	0xbe875424	-0.26431382
87	0x3e8791a1	0.26478294
88	0xbede639b	-0.43435368
89	0xbea9f427	-0.33194086
90	0x3c8cea88	0.017201677
91	0x3e81b68e	0.2533459
92	0x3db8fa52	0.0903212
93	0x3da2453a	0.0792336
94	0x3e4af598	0.19820249
95	0x3e814821	0.25250342
96	0xbe49286c	-0.19644326
97	0xbea58511	-0.32328084
98	0x3eae6bc1	0.34066585
99	0xbed74d33	-0.42051086
100	0xbeb71746	-0.35759944
101	0xbe462282	-0.19349101
102	0x3ea6f763	0.32610616
103	0x3f09a919	0.5377365
104	0xbe3bc7c6	-0.18337926
105	0xbf127b6d	-0.5721958
106	0x3eabd49d	0.3356065
107	0xbe46dfa1	-0.19421245
108	0x3d9f44d4	0.077768
109	0xbc57fb76	-0.013182512
110	0x3d71db82	0.05904723
111	0xbe303091	-0.17206027
112	0x3ee7d553	0.4527994
113	0x3ec66fac	0.38757074
114	0x3f126d7c	0.5719831
115	0x3c9ca3ad	0.019121015
116	0xbe64caf3	-0.22343044
117	0xbe896639	-0.26835802
118	0x3f37a4b9	0.7173572
119	0xbe13996e	-0.14413998
120	0x3e6d7d57	0.23192345
121	0x3e395fe6	0.18102989
122	0x3e3a312c	0.1818282
123	0x3efa2ae5	0.4886085
124	0xbe7ec186	-0.24878511
125	0x3ee0b4a4	0.43887818
126	0x3d8b836a	0.068121746
127	0x3e5aa5a9	0.21352257
128	0xbc50e0ff	-0.012748956
129	0x3e21f9a8	0.15817893
130	0xbe1993ce	-0.1499779
131	0x3e827c94	0.2548567
132	0x3e6ffd6e	0.2343652
133	0x3e8255ea	0.25456172
134	0xbea35b26	-0.31905478
135	0x3ea09764	0.31365502
136	0xbe63c692	-0.22243717
137	0xbe96a8b0	-0.29425573
138	0xbdb9e767	-0.090773396
139	0xbd998384	-0.07495788
140	0x3eb3bc41	0.35104564
141	0xbeff2709	-0.4983447
142	0xbd3f209f	-0.04666197
143	0x3db6732c	0.08908686
144	0xbb60157c	-0.0034192493
145	0xbd0aca9a	-0.033884622
146	0xbe09d2e6	-0.13459358
147	0x3ea64e79	0.32481745
148	0xbe405e5b	-0.18785994
149	0xbea69ea5	-0.3254291
150	0x3e1a06b0	0.15041614
151	0x3f1aae6c	0.60422397
152	0x3e181f3a	0.14855662
153	0x3dbaf686	0.09129052
154	0x3d86a69a	0.065747455
155	0x3ea8a264	0.32936394
156	0xbe227483	-0.15864758
157	0xbea91b7e	-0.33028787
158	0x3e997d3e	0.29978365
159	0xbe1798f6	-0.14804444
160	0x3e5aa290	0.21351075
161	0x3d70fdd4	0.05883582
162	0x3e4164f6	0.1888617
163	0x3e7e0544	0.24806696
164	0xbece6b50	-0.40316248
165	0xbe90b878	-0.28265738
166	0xbea090de	-0.31360525
167	0xbcc8f79d	-0.024532134
168	0xbe800f4b	-0.25011668
169	0x3ce9da9c	0.028546624
170	0x3f04ddee	0.5190114
171	0xbf2bccaf	-0.671092
172	0x3f21aea7	0.63157123
173	0x3e5723b8	0.2100972
174	0x3e861b1d	0.2619256
175	0xbe5cde8d	-0.21569271
176	0xbe63df14	-0.22253066
177	0xbebf6497	-0.3738143
178	0x3cbad1c6	0.022805106
179	0xbed0774d	-0.4071602
180	0x3d84a7ea	0.064773396
181	0xbd9517ed	-0.07279954
182	0x3e852726	0.2600643
183	0xbd8b89d8	-0.06813401
184	0xbe63643d	-0.22206207
185	0x3e0b373f	0.13595293
186	0xbdc48f63	-0.09597661
187	0x3d0d9738	0.03456804
188	0xbede5839	-0.43426684
189	0x3e2f6254	0.17127353
190	0xbed76a02	-0.42073065
191	0xbe46494c	-0.19363898
192	0x3e344057	0.17602669
193	0xbe6936dd	-0.22774835
194	0x3a5e8f4f	0.00084899826
195	0xbe69c65f	-0.22829579
196	0x3d9d9843	0.07695057
197	0x3e98b231	0.2982345
198	0xbf452bd3	-0.77019995
199	0x3e307cec	0.17235154
200	0x3e523c2e	0.20530769
201	0x3d06683f	0.03281426
202	0x3d9a912f	0.07547223
203	0x3ee00e14	0.4376074
204	0x3c596d09	0.013270625
205	0x3e9380e8	0.28809285
206	0xbcaf662e	-0.021411028
207	0x39f123d2	0.0004599379
208	0x3e1eb836	0.15499958
209	0x3ed0a8a8	0.40753675
210	0xbe87c93f	-0.26520726
211	0x3d159cfa	0.036526658
212	0x3dcb884d	0.09938107
213	0x3e90c75f	0.28277108
214	0xbe8448b9	-0.25836733
215	0xbe504adc	-0.20341057
216	0x3e1bafff	0.15203856
217	0xbf25ed2d	-0.64815027
218	0x3e4173d2	0.18891838
219	0x3c9ff56b	0.019526204
220	0x3d107d71	0.03527588
221	0xbe6a0d18	-0.22856557
222	0xbdd28aa4	-0.1028035
223	0x3eb2105f	0.34778115
224	0xbc415128	-0.011799134
225	0xbdf752bd	-0.12076328
226	0x3b0104e8	0.0019686762
227	0xbdd51feb	-0.104064785
228	0x3e59cbba	0.21269122
229	0x3ef1868e	0.4717297
230	0xbec5ded3	-0.38646564
231	0xbd6b171a	-0.05739508
232	0x3e8e3d8c	0.27781332
233	0xbe374ec8	-0.17901146
234	0xbdb7951a	-0.08963986
235	0xbd269925	-0.040673394
236	0xbebf9f3d	-0.37426177
237	0x3bc2a0cb	0.005939578
238	0xbf023b8a	-0.508721
239	0xbde5ca7a	-0.1122026
240	0x3eb1f69e	0.34758466
241	0xbf401325	-0.7502921
242	0x3e9d7de2	0.30760103
243	0x3f1aec23	0.60516566
244	0x3d77cf96	0.060500704
245	0x3eb513d2	0.35366684
246	0x3eef0cf5	0.46689573
247	0xbf04447e	-0.5166701
248	0x3e263d0a	0.16234222
249	0xbe0f0863	-0.13968043
250	0x3d93ef7b	0.07223412
251	0xbdb11839	-0.08647198
252	0xbe76e18e	-0.2410948
253	0x3e035b91	0.12827899
254	0xbe939d15	-0.28830782
255	0x3dd1d87a	0.10246368

lstm1.bias_ih_l0_reverse f4 [256]
0	0xbe6a0ddf	-0.22856854
1	0xbdf3db79	-0.119070955
2	0xbd70d5eb	-0.058797758
3	0xbe6f59fe	-0.23374173
4	0x3d2a9671	0.04164738
5	0x3ddba8c6	0.1072555
6	0xbe7035eb	-0.23458068
7	0x3d3088fe	0.043099396
8	0x3d749e31	0.059721176
9	0xbe7f3e9b	-0.24926226
10	0xbd44d7cc	-0.048057362
11	0x3dc2af40	0.095060825
12	0xbd1a608e	-0.037689738
13	0x3d096239	0.033540938
14	0x3e60e6b6	0.21963009
15	0xbd9032df	-0.07040953
16	0xbdbfa641	-0.09357882
17	0x3d4e980d	0.050437976
18	0xbddf99aa	-0.10917981
19	0x3dc38942	0.09547664
20	0xbe790d2e	-0.24321434
21	0xbddea86b	-0.10871967
22	0xbe4b31fb	-0.19843285
23	0xbe0c9737	-0.13729559
24	0x3cc34437	0.023836238
25	0x3d333abf	0.043757197
26	0x3cf842b8	0.030305251
27	0xbe0b0b1d	-0.13578458
28	0xbdf2de7b	-0.11858841
29	0xb9de74f6	-0.00042430282
30	0xbe8e5e23	-0.27806196
31	0x3ea90e75	0.33018842
32	0xbe833d80	-0.25632858
33	0x3d844db3	0.064601324
34	0x3c531d77	0.012885443
35	0x3d3f6711	0.04672915
36	0x3d3691f3	0.04457278
37	0xbd0cca59	-0.03437266
38	0xbe83c0a7	-0.2573292
39	0x3eab4604	0.33451855
40	0xbeb563f6	-0.35427827
41	0xbcf91276	-0.03040431
42	0xbddc98ee	-0.107713565
43	0x3d5625c2	0.052282102
44	0x3b9efefe	0.004852175
45	0xbd217195	-0.03941496
46	0x3cbb6e50	0.02287975
47	0x3e0383d0	0.12843251
48	0xbde2717f	-0.11056804
49	0x3dc1483b	0.09437605
50	0xbe282c31	-0.16423108
51	0xbe44a757	-0.1920446
52	0xbdc56a73	-0.09639444
53	0xbe90d8f5	-0.28290525
54	0xbd3a4883	-0.04547931
55	0xbc9b17e5	-0.018932292
56	0x3b9d56af	0.0048015933
57	0xbe7589f9	-0.23978414
58	0xbdd8a15c	-0.10577652
59	0xbbf37882	-0.007430137
60	0xbbd05926	-0.0063582836
61	0xbb58d472	-0.0033085612
62	0xbddbacc7	-0.10726314
63	0xbdc44480	-0.09583378
64	0x3ce5e872	0.02806494
65	0xbcaea30b	-0.02131798
66	0x3c26faeb	0.010191659
67	0xbdd901dd	-0.105960585
68	0x3d2d0c3c	0.042247996
69	0xbc4b969c	-0.012426045
70	0xbe4505cd	-0.19240494
71	0x3dc04d8b	0.0938979
72	0x3d2509dd	0.04029261
73	0x3d8817d2	0.06645168
74	0xbe4d797d	-0.20065875
75	0xbbdaf755	-0.0066823163
76	0xbc4dc0e8	-0.012558199
77	0x3d95c196	0.07312314
78	0x3cf942e6	0.030427407
79	0xbe11a98b	-0.14224832
80	0xbe207031	-0.15667798
81	0xbd872d35	-0.066004194
82	0xbe6be406	-0.23036203
83	0x3daff484	0.085915595
84	0x3cdb95f1	0.026804896
85	0xbc848889	-0.016178386
86	0xbd0440d0	-0.032288373
87	0x3e6ca124	0.23108345
88	0xbd73d938	-0.059533328
89	0x3e0ed42a	0.13948122
90	0xbdaae368	-0.083441556
91	0xba6d944f	-0.0009062932
92	0xbe0cd119	-0.1375164
93	0x3db10003	0.0864258
94	0x3d6b1972	0.057397313
95	0x3b90cd7c	0.004419027
96	0xbe1e3695	-0.15450509
97	0x3cab4f65	0.020911882
98	0xbd2c7a82	-0.04210902
99	0x3d28ae6e	0.041181974
100	0xbd96e101	-0.07367135
101	0x3d409ad0	0.04702264
102	0xbea601e6	-0.32423323
103	0xbd5cdb7c	-0.053920254
104	0x3e0f1dae	0.13976166
105	0x3c45ab18	0.012064718
106	0xbd2dc21b	-0.04242144
107	0xbe44e75c	-0.19228882
108	0x3d0a22bb	0.033724528
109	0x3e66f4d8	0.22554338
110	0x3e53ad06	0.20671472
111	0x3dc7b7e4	0.09751871
112	0x3df31201	0.11868668
113	0xbda7110a	-0.08157547
114	0x3d4b6eda	0.049666263
115	0xbd506179	-0.050874207
116	0xbe90ae0d	-0.2825779
117	0xbcfd7a1b	-0.030942013
118	0x3e75a359	0.23988093
119	0xbe517b1e	-0.20457122
120	0xbda2a523	-0.079416536
121	0xbb4e5613	-0.003148441
122	0x3d869515	0.06571404
123	0x3d9e931f	0.07742905
124	0x3e89a7cc	0.2688583
125	0xbd629c60	-0.055324912
126	0x3e58cd0b	0.21171968
127	0xbd461105	-0.048356075
128	0xbde31697	-0.11088293
129	0x3cbe62c4	0.023240454
130	0xbcb7024d	-0.022339964
131	0x3e89d6cd	0.26921692
132	0x3d0ba364	0.03409137
133	0x3cd22ad2	0.025655184
134	0x3dcee860	0.10102916
135	0x3e22941d	0.15876813
136	0xbd23819b	-0.039918523
137	0x3d230095	0.039795477
138	0xbd95ce0f	-0.07314693
139	0xbaec3d60	-0.0018023662
140	0x3d5f2e8e	0.054487757
141	0xbdee7741	-0.1164384
142	0x3d9456ea	0.0724314
143	0xbdfe80a6	-0.124268815
144	0xbcd2ed29	-0.025747852
145	0xbd9e2e3e	-0.07723664
146	0x3d872aef	0.06599986
147	0x3e0abee3	0.1354938
148	0xbd41099f	-0.047128316
149	0xbac307cd	-0.0014879644
150	0x3dffdff4	0.124938875
151	0xbbdffae6	-0.0068353293
152	0x3b799370	0.0038082264
153	0x3d85d6a1	0.06535078
154	0xbdb296a7	-0.08720141
155	0x3ddd4927	0.10804968
156	0x3cd2fb57	0.025754614
157	0xbdd806d1	-0.10548175
158	0x3d9e41a1	0.077273615
159	0xbe39c8bb	-0.18142979
160	0xbcbdc892	-0.023166928
161	0xbcc380fc	-0.023865215
162	0x3d62fb8e	0.055415682
163	0x3d9c4eae	0.076321945
164	0xbda3019a	-0.0795929
165	0x3ddef24b	0.108860575
166	0xbe2b51b0	-0.1673038
167	0x3d4f8562	0.050664313
168	0xbdaca5a3	-0.0843003
169	0xbe221f88	-0.1583234
170	0x3e0bdd5b	0.13658659
171	0x3d3897a1	0.04506648
172	0x3e71fd44	0.2363177
173	0xbd24b6fd	-0.040213574
174	0xbe1cdd16	-0.15318713
175	0x3e5d3978	0.21603954
176	0xbc2b5036	-0.0104561355
177	0xbd7cf391	-0.06175572
178	0xbdb21527	-0.08695441
179	0xbddbfcbb	-0.10741564
180	0xbe007307	-0.1254388
181	0x3c8a9f2a	0.016921598
182	0x3cc40836	0.023929697
183	0x3d613351	0.05498058
184	0x3cd051be	0.025429603
185	0x3db1f4b0	0.086892486
186	0xbd8a3a7d	-0.06749437
187	0xbc359010	-0.01108171
188	0x3ced6890	0.028980523
189	0xbc81a98a	-0.015827913
190	0xbd90553f	-0.070475094
191	0x3d971f01	0.073789604
192	0xbe4968c4	-0.19668871
193	0xbe1f0e91	-0.155329
194	0x3e1a2a53	0.15055208
195	0xbde21c7b	-0.110405885
196	0xbe216782	-0.15762141
197	0x3dae2e09	0.08504874
198	0xbe3ed44f	-0.18635677
199	0xbe317652	-0.17330292
200	0xbd5038bd	-0.05083536
201	0xbc3342d2	-0.010941224
202	0xbb65ac12	-0.003504519
203	0x3bc777f5	0.006087298
204	0x3d13d0df	0.036087867
205	0x3d7ae10c	0.061249778
206	0x3db2ceba	0.08730836
207	0xbe68cfe1	-0.2273555
208	0x3a7a0ee0	0.000953896
209	0xbde9fbd3	-0.11424985
210	0xbe980c4b	-0.2969688
211	0x3dd6bdb0	0.10485399
212	0xbc3487a2	-0.0110186655
213	0xbe127406	-0.14302072
214	0xbe2c39f9	-0.1681899
215	0x3da40345	0.08008436
216	0x3c9cd039	0.019142257
217	0xbd72304e	-0.0591281
218	0xbd19a12e	-0.03750723
219	0xbd908ba0	-0.07057881
220	0xbc247365	-0.010037278
221	0xbd8712f9	-0.065954156
222	0xbdd3322c	-0.10312304
223	0x3e007358	0.12544
224	0xbb906252	-0.004406252
225	0x3dd2bd34	0.10289994
226	0x3d1d1c1d	0.03835689
227	0x3de356cb	0.11100539
228	0x3e0f5d2c	0.14000386
229	0xbdebe930	-0.11519086
230	0xbadade99	-0.0016698419
231	0x3dc669d0	0.09688151
232	0x3d9767dc	0.073928565
233	0xbd7d254a	-0.06180314
234	0xbcd73c89	-0.026273983
235	0xbd63b72f	-0.05559462
236	0xbc30dab8	-0.010794334
237	0xbe245714	-0.16048843
238	0x3d8c243c	0.06842849
239	0xbe5d489a	-0.21609727
240	0xbd97917c	-0.07400796
241	0xbe61c831	-0.22049023
242	0xbdd1fdd3	-0.10253491
243	0xbe189c91	-0.14903475
244	0xbe63241d	-0.22181745
245	0xbd708f8a	-0.05873064
246	0x3cd0194b	0.025402686
247	0x3deddc7b	0.11614319
248	0xbcc2d486	-0.02378298
249	0xbcaf073b	-0.021365752
250	0xbdd1c7de	-0.102432
251	0xbc6c01db	-0.014404739
252	0x3df98aa8	0.1218465
253	0x3da41dd6	0.08013503
254	0x3d3e20ab	0.046417873
255	0x3d9551b5	0.07290975
